Assets/Avoid&Detect.onnx (onnx, 72981 bytes, 7 tensors)

action_model._continuous_distribution.log_sigma f4 [1, 3]
000000 2e 28 fb bd ca b6 14 bf a8 32 f1 be
       -0.12263523 -0.58091414 -0.4710896

action_model._continuous_distribution.mu.bias f4 [3]
000000 77 39 fe bd 5e 0b cd 3e 92 be b7 bc
       -0.12413304 0.40047735 -0.022429738

action_model._continuous_distribution.mu.weight f4 [3, 128]
000000 4b c5 1b 3e 50 4c 3d 3d f3 ed d3 3d a2 48 5f bd
       0.1521198 0.046215355 0.103481196 -0.054512627
000010 bd d5 39 ba e0 53 ec 3c 64 b9 36 3e 7b 63 ac 3c
       -0.00070890394 0.028848588 0.17844158 0.02104353
000020 76 ec 8c 3d ea 0f ca bc 52 ae bc 3e 7f 14 2b be
       0.06881039 -0.024665792 0.36851746 -0.16707037
000030 3f cc e9 3d d1 0d de 3d b3 c4 1b ba 3c fc 02 be
       0.1141591 0.10842479 -0.0005942091 -0.12791532
000040 63 9d 9b 3d 52 f0 18 bd 26 44 67 be 50 a3 52 3d
       0.075983785 -0.037338562 -0.2258459 0.05142528
000050 4c b7 14 be 97 b5 bf bd 99 ce f4 bb 80 48 0b be
       -0.14523047 -0.093608074 -0.0074709174 -0.13601875
000060 fe 77 3a be f7 9f 90 3b ee 19 6a 3b 2c bd ef 3e
       -0.18209836 0.0044136005 0.0035721022 0.46824014
000070 5b d4 49 be 91 94 0a 3c 0e cb 6f 3e e9 68 55 3d
       -0.19709913 0.008458273 0.23417303 0.052102003
000080 68 67 8c 3d e4 bc 9d 3e 64 24 dd 3d db 62 b9 bb
       0.06855661 0.30808175 0.107979566 -0.0056575364
000090 c6 1d 98 3d 4a 66 d3 bc f9 1e fc 3b c4 18 f7 ba
       0.07427554 -0.025805611 0.007694122 -0.0018851985
0000a0 d0 84 2c bd da 7f ff 3e b7 9f 8e 3d f1 12 23 3d
       -0.042118847 0.4990223 0.06964057 0.039812986
0000b0 ae cc 96 bd 0a 7d 6a 3c 7e d0 a1 bc f9 c0 4a 3e
       -0.07363258 0.014312038 -0.019752737 0.19800176
0000c0 55 76 cc 3c 53 44 4d be 5b fb c6 3d 64 78 d4 3d
       0.024958769 -0.20045595 0.09715911 0.10374525
0000d0 3a 7a f6 bb f2 ba 8f 3e 12 88 0b bc 84 16 95 bd
       -0.0075218948 0.28072315 -0.008516328 -0.07279685
0000e0 20 0a 14 3d 5e 5d ca 3d 7d 42 27 bd ea 7f d4 bd
       0.03614247 0.0988109 -0.040834893 -0.1037596
0000f0 e6 ed db 3d b8 2a b1 bd 29 8c 80 bd ac 52 89 3e
       0.10738735 -0.08650726 -0.062767334 0.26820886
000100 ac 14 21 bd ac d7 9f bd 3e da 80 3d 83 54 00 3d
       -0.039326355 -0.07804808 0.062916264 0.031330597
000110 66 87 e5 bc dd e2 de bd db 18 82 3d a6 15 af 3b
       -0.028018665 -0.108831145 0.06352397 0.005343157
000120 e7 38 ec 3d bd 09 77 be 11 7a ba 3e 01 c4 db 3e
       0.11534291 -0.24124809 0.36421254 0.42922977
000130 63 09 59 3e 57 60 3e be 1c e2 c5 bd 93 1f c9 3b
       0.21194987 -0.18591438 -0.096622676 0.006137797
000140 94 f2 61 3e 7e 15 0a 3e 14 84 59 3d 59 82 09 3e
       0.22065192 0.13484761 0.053104475 0.1342863
000150 eb fd 1d 3c 07 aa 9e be 6b 4c 45 bc 56 26 99 3d
       0.009643058 -0.30989096 -0.012042145 0.07478015
000160 2f f7 4f bd 02 73 d0 bc 11 85 f0 3d ec 2f b8 bc
       -0.050772842 -0.025445465 0.117441304 -0.022483788
000170 8a 82 48 3c b3 d8 d6 3d 39 60 98 3e 3b ef 4b be
       0.012238154 0.10490551 0.29760912 -0.19915478
000180 5e 86 46 bc d5 e1 16 3e 2b fc 10 3e 30 42 da 3c
       -0.012116997 0.14734586 0.14158694 0.026642889
000190 e6 70 8b 3e d5 2f 99 3d 70 6c 1b bc dc 4c c5 bd
       0.27234572 0.07479826 -0.009486303 -0.096338004
0001a0 3d ec 19 3d 83 cd 94 bb f4 82 c8 bc cc 9c 24 3d
       0.03757881 -0.0045411005 -0.024476506 0.040188596
0001b0 ca 1d 75 bd ca 98 6a 3d f3 09 02 bc 23 2c ab 3e
       -0.059842862 0.057274617 -0.007936942 0.3343211
0001c0 b6 04 9b be 34 7a 04 be db 1c fb bd ad c7 b4 3e
       -0.30277032 -0.12937242 -0.12261363 0.3530859
0001d0 f6 dc a3 bc cd 90 23 3e 32 a0 d8 bc 27 66 86 be
       -0.020002823 0.15973206 -0.026443575 -0.2624981
0001e0 a4 6c ad be 39 cb 97 be 83 76 c1 3d 83 c9 7e 3d
       -0.3387195 -0.29647234 0.094464324 0.062203895
0001f0 9e d3 f1 3d aa 6a c3 3d 79 cd 8a bd 01 cb 81 3d
       0.11807941 0.09541829 -0.06777472 0.06337548
000200 23 d9 fe be 2c 16 66 be a9 89 55 3d 7d fd 53 be
       -0.49775037 -0.22469395 0.052133236 -0.20702167
000210 4e 06 87 bd f0 fc 97 be 1a e7 9d bd 84 a0 79 3d
       -0.065929994 -0.29685163 -0.07710095 0.060944095
000220 95 33 47 3c b7 40 c3 3d c6 bb d1 bd 4c 6d 2b be
       0.012158294 0.09533828 -0.10240893 -0.16740912
000230 bf e0 ce 3c 11 c2 e9 3c 2d 76 2e bc 4c 4a 9a be
       0.025253652 0.02853492 -0.0106482925 -0.3013481
000240 2d 01 d9 bd 9e 8c ed 3d d2 7d 69 bd 37 0c 29 bb
       -0.105959274 0.11599086 -0.057004757 -0.0025794634
000250 a1 b9 8b be 1e 8c fb 3c ad 13 87 3b 1d 33 00 bf
       -0.2729006 0.030706462 0.0041222186 -0.5007799
000260 02 b3 27 be e1 3c 7e bc ea 93 9a 3c 3f 20 f8 3c
       -0.1637688 -0.015517444 0.018869359 0.030288814
000270 21 3f 16 be 00 84 0c bf 06 39 02 bf 79 2d 87 bd
       -0.1467252 -0.54888916 -0.5086826 -0.0660047
000280 88 10 da be 56 40 6c 3d 36 75 69 be f7 c1 e4 bd
       -0.42590737 0.057678543 -0.22798619 -0.11169808
000290 b8 59 17 3c 38 5e ff 3c 2a b8 9d 3d 10 ef 4d 3c
       0.009237699 0.031172857 0.07701142 0.012569204
0002a0 45 23 22 be 49 b6 2c 3d ff a7 c1 bc 75 fc e8 3c
       -0.15833767 0.04216603 -0.023639677 0.028440693
0002b0 7d 3e e0 bd d6 53 c7 3d d6 cf 96 3d be 54 f3 ba
       -0.10949419 0.09732787 0.0736386 -0.0018564684
0002c0 01 81 13 be 7c 0c e5 3c a7 bf c9 bd a6 a2 6f bc
       -0.1440468 0.027960055 -0.09851008 -0.014626181
0002d0 1e c1 f7 bd 71 b1 8b be 40 57 21 bd ae 9c 09 3d
       -0.12097381 -0.27283815 -0.03938985 0.033596687
0002e0 78 10 d9 bd 75 57 ac be d4 11 f6 bd d0 cc 10 bd
       -0.10598844 -0.33660474 -0.12015119 -0.035351574
0002f0 be f5 04 bf 08 f8 3b bd a5 c1 82 3d 1c 71 ed be
       -0.5193747 -0.045890838 0.06384591 -0.46375358
000300 90 c4 91 3d f6 fd 44 ba e9 24 c2 be 54 c5 84 3d
       0.071175694 -0.000751465 -0.37918785 0.0648295
000310 62 a3 c2 3d c7 a6 35 bd 6b bf ee bd 36 51 3c be
       0.09503819 -0.044348504 -0.11657604 -0.18390355
000320 fc 13 3f be b7 9e 13 be 21 03 4c bd dc 4e f8 bd
       -0.18659967 -0.14416014 -0.04980767 -0.12124416
000330 69 5c 02 bf 7c 0e 9d 3d e3 49 c6 bc 8b a4 1b bd
       -0.50922257 0.07668778 -0.024205154 -0.037998717
000340 b3 6e be 3d 19 50 c6 be a2 30 f6 bd 78 de 89 bd
       0.09298458 -0.38732985 -0.12020995 -0.06731886
000350 2e 5d e6 3c 5d 00 b9 be dd ec 4b ba 48 c9 d5 bd
       0.028120603 -0.3613309 -0.0007779131 -0.10438782
000360 be 2e 42 bc 46 cd 5b bd 1b 20 96 bf b9 fc c3 3c
       -0.0118519645 -0.05366256 -1.1728548 0.023924218
000370 e1 73 32 bf 54 42 31 bd 58 e4 4c be 72 01 1e be
       -0.6970807 -0.043276146 -0.20008981 -0.15430239
000380 e9 fa 36 3d fe b8 24 bf ce 1b bd bd 92 ac 10 bd
       0.04467288 -0.64344776 -0.09233819 -0.035320826
000390 71 3a ca be 02 bd 7a bc ae 86 c8 be 75 59 2b 3d
       -0.39497712 -0.015303852 -0.39165252 0.04183336
0003a0 4a 86 3a bd 0e f4 ee bd 51 f9 45 3d 96 d7 53 3c
       -0.045538224 -0.116676435 0.04833347 0.012929818
0003b0 8e b9 11 bb da 54 89 3c 34 6e 33 bd 8e e3 63 3d
       -0.0022235843 0.016764093 -0.04380627 0.055636935
0003c0 e4 a5 ba 3d 55 94 bd bc ed 26 3a be dd 72 72 be
       0.091136724 -0.02314202 -0.18178912 -0.2367663
0003d0 7a b6 25 be 0e f0 9e be bd 86 83 bc f1 6e de be
       -0.1618289 -0.31042522 -0.01605546 -0.43444017
0003e0 69 ac f5 3c 5e 27 6f 3e 3d fe fc be df fb 3f 3d
       0.029989438 0.23354861 -0.49412718 0.046871062
0003f0 68 2f 51 bb de d6 88 3d 84 9f fe 3d ee c1 4c be
       -0.0031919125 0.06681608 0.12432769 -0.19995853

network_body._body_endoder.seq_layers.0.bias f4 [128]
000000 42 04 9e bd de 80 cf 3b 9a 47 7e 3e e4 64 36 3e
       -0.07715656 0.006332501 0.24832001 0.17811924
000010 f8 08 c9 be 8d d5 1e 3e 08 60 99 be 2a d3 6d 3e
       -0.39264655 0.1551115 -0.2995608 0.23225084
000020 ca 73 73 be 6b 1c cc 3d 8b 66 60 3d 2d e2 9c 3c
       -0.23774639 0.09966358 0.054785293 0.019150818
000030 d2 0d a4 be 96 af 72 3e 6e ed 97 bd ec 55 df 3d
       -0.32041794 0.23699793 -0.07418333 0.1090506
000040 4d 75 29 3d 21 a1 f2 3d dc e8 c1 be ed da 8e bd
       0.041371632 0.11847139 -0.3787297 -0.069753505
000050 23 d6 bc 3e e7 14 f5 bb f0 e0 67 be be 9b ed 3d
       0.36882123 -0.0074792984 -0.226444 0.11601971
000060 41 5d 0a be b2 f9 e3 bd 29 53 82 be bb fa 00 3e
       -0.13512136 -0.1113161 -0.2545407 0.12595646
000070 20 15 10 be be 54 9c 3d c4 00 65 be 7f 48 90 be
       -0.14070559 0.07633351 -0.22363573 -0.2818031
000080 28 db 28 3d 1d e1 38 be c3 03 bf be 3b 38 09 3e
       0.04122463 -0.18054624 -0.37307557 0.13400356
000090 64 be 2e be 50 79 cd 3d 07 b9 81 bd e8 3e 33 be
       -0.17064816 0.10032904 -0.06334119 -0.17504466
0000a0 1b 39 c6 3d e4 b4 e2 bd b9 80 36 be ae 6b a6 bd
       0.09678861 -0.110696584 -0.17822541 -0.08126007
0000b0 5e 8d 2f 3d 1f 94 2e be 36 e7 d2 be 1f b1 82 3e
       0.042859428 -0.17048691 -0.41192025 0.25525758
0000c0 38 4d 42 3e 66 37 e9 bd 4c 4c b0 be 45 1f 9c 3e
       0.18974769 -0.113875195 -0.3443321 0.30492607
0000d0 d1 76 a3 3e 95 5f 84 be 6e dc 30 3c 65 ea f2 bd
       0.31926587 -0.25854173 0.010794742 -0.118611135
0000e0 8d b1 a3 bd c8 2a 65 3e ea e7 d7 be e5 d3 00 3d
       -0.079928495 0.22379601 -0.42169124 0.03145208
0000f0 68 64 19 3d 9c 72 1e be 24 d7 da bd 7e 59 88 be
       0.03744927 -0.15473408 -0.10685566 -0.26630777
000100 5f 35 5f 3e 46 b3 87 be 2d fe 07 bd 67 c2 39 bd
       0.21797703 -0.26503962 -0.033201385 -0.045351412
000110 06 30 00 be 85 62 6e 3d 17 37 9f 3e 46 aa ce be
       -0.1251832 0.058199424 0.31096718 -0.40364283
000120 05 50 36 3b a6 0c cf be f6 15 71 3e 6a f6 ee be
       0.0027818691 -0.40439337 0.23543534 -0.46672374
000130 70 61 e4 bd 62 a5 fe bd bb a8 d6 bc c6 d8 99 be
       -0.11151397 -0.12433888 -0.026203504 -0.30048198
000140 0f 3f dc 3d ba f0 cd 3c ad ec 75 3d c3 51 1c 3c
       0.10754215 0.025139201 0.060040165 0.009540978
000150 e9 ed c1 be 06 6a c7 be 53 a8 fe ba b5 ef 32 3e
       -0.37876824 -0.38948077 -0.0019428827 0.17474253
000160 f6 cd 3f be 04 c7 85 be 75 32 be 3d 0f 3b ca be
       -0.18730912 -0.261284 0.09286968 -0.39498183
000170 23 5d 06 be 81 4c fb be ee e3 8d 3e 0f 92 fd 3e
       -0.13121466 -0.49081805 0.2771296 0.49525496
000180 88 e5 86 be 1b d7 6d bd d5 66 4a bd e7 61 5b 3d
       -0.26346993 -0.05806647 -0.049414475 0.053560164
000190 97 df 34 be 90 dc 3f be 9a b4 75 bd 76 04 93 3c
       -0.17663418 -0.18736482 -0.05998669 0.017946463
0001a0 35 35 16 bd 50 41 81 3e b7 24 bd bd 42 84 02 be
       -0.036671836 0.25245142 -0.092355184 -0.12745765
0001b0 42 22 5e 3e be 7c e1 3c e3 c0 08 be 89 b7 e6 be
       0.21692756 0.027525302 -0.1335483 -0.450619
0001c0 62 8d 1a bf c8 a6 c5 bc a7 59 8d 3d 90 e6 52 3e
       -0.60371983 -0.024127379 0.069018655 0.20595765
0001d0 a1 12 c4 bc 93 b6 a8 3e 2d 07 ce 3c cd 10 fa be
       -0.023934664 0.32951793 0.025149906 -0.48840943
0001e0 51 5b 61 bc 94 a2 87 be 6f 72 17 3e ca 52 c3 3b
       -0.013754682 -0.26491225 0.14789747 0.005960797
0001f0 c2 5c 08 be a5 b5 29 bc e9 6e 9d 3c 02 54 d3 bd
       -0.13316634 -0.010358249 0.019217925 -0.103187576

network_body._body_endoder.seq_layers.0.weight f4 [128, 6]
000000 2e 7f 43 bf f6 21 a2 3f dd 07 ce bd 89 89 96 3e
       -0.76365936 1.2666614 -0.100600936 0.29401806
000010 d4 d0 2c be 23 4a 95 3e 09 26 9b 3e 2d 3c 1c bf
       -0.16876537 0.29158124 0.30302456 -0.6102932
000020 fa 03 21 3f be 56 e6 be 26 16 96 be a9 b0 5a 3e
       0.6289669 -0.44988054 -0.29313773 0.21356453
000030 e7 0c 21 3e d0 73 46 bf d7 f4 5f 3d 71 ac d5 bd
       0.15727578 -0.77520466 0.054676857 -0.10433281
000040 ee 84 e8 be ab 0a cf bd c8 0b 5e 3d 0f 11 3f bf
       -0.45413917 -0.10109457 0.054210454 -0.74635404
000050 03 55 a0 be 17 71 2f 3e 38 a1 da 3e f1 37 87 3e
       -0.3131486 0.17132984 0.42701125 0.26409867
000060 81 54 e2 3d d8 cf 10 3f 6e 9f ab be b2 94 8d 3e
       0.11051274 0.56567144 -0.33520073 0.27652508
000070 12 37 65 3f 8e 80 7b bc b8 ce 83 be 86 8a 23 bf
       0.89537156 -0.015350474 -0.2574365 -0.63883245
000080 33 ea 7f 3e f7 e7 06 bd 4c a1 aa 3d 49 41 fa 3d
       0.24991684 -0.032936063 0.08331546 0.122194834
000090 19 25 93 3d cc d4 5d bf f9 9b d7 3e 16 9b dc be
       0.0718481 -0.8665283 0.42111185 -0.4308707
0000a0 c3 3f 29 3f f6 1e e7 bd fe 00 48 be e1 af 14 bf
       0.6611292 -0.11285202 -0.19531628 -0.5808087
0000b0 e8 62 80 3d dc be d5 3e 5a 61 eb bd b2 f8 ce be
       0.06268865 0.41747177 -0.11493178 -0.40424114
0000c0 55 b0 be 3e eb 65 46 3f f1 82 f3 3d c4 c5 dd 3e
       0.37243906 0.77499264 0.118902095 0.43314946
0000d0 c2 9a e2 3e 62 cc 37 3d 88 a0 46 3c 95 8d d6 be
       0.44258696 0.04487265 0.012123235 -0.41904894
0000e0 9e c6 7f 3e 8f 9f a0 be 9f f7 72 3e 6e 99 0b bf
       0.2497811 -0.31371734 0.23727272 -0.5453099
0000f0 c5 5a 35 bf d3 be 07 3f 8c be d3 be 9e cd 3e 3e
       -0.7084163 0.5302555 -0.41356313 0.18633124
000100 3c 2f cf be 1f 64 74 bd d6 3d e0 3e 80 08 1e 3e
       -0.40465724 -0.059665795 0.43797177 0.1543293
000110 51 a5 0c bd 03 14 0d 3f 68 66 2b bf 06 39 62 3c
       -0.034337346 0.5510866 -0.66953135 0.013807541
000120 e9 7e d2 3d 1c 3d 48 3f 0c 26 20 3d a2 a3 87 be
       0.102781124 0.78218246 0.039098784 -0.2649203
000130 22 1b 26 be 40 5d c5 bc 74 7f 09 3f d8 50 c9 be
       -0.16221288 -0.024092317 0.53710103 -0.3931949
000140 4f 4e f9 bc 5a 99 4c be b2 6e b7 be f7 23 d6 bd
       -0.030432848 -0.19980374 -0.3582664 -0.104560785
000150 ba d7 22 3c 43 f3 1d 3f 81 33 76 3d 01 4c af be
       0.0099391285 0.6169931 0.06010771 -0.34237674
000160 d8 ee cb be 3f b5 f8 3c 58 00 12 3f e4 00 b2 bd
       -0.3983066 0.030359862 0.57031775 -0.08691576
000170 37 d3 1f 3e 44 62 a7 be 7a 92 9a be 82 53 3a 3d
       0.15607916 -0.32692158 -0.30189878 0.045489796
000180 28 ba 2b be 19 b5 67 3f 70 a8 72 3f 56 fc 22 3c
       -0.16770232 0.9051071 0.94788265 0.009947857
000190 ad d9 d9 be 88 c3 d2 3d 5f 4b 08 be fa aa d7 3d
       -0.42548886 0.10291201 -0.13310002 0.10530658
0001a0 03 31 f3 bd 86 ae 6d bd 50 de d2 bd 77 ba 3f 3f
       -0.118745826 -0.058027767 -0.10296309 0.748939
0001b0 3b f8 3f bc 7b f7 93 3f d0 9e 86 3e e7 d0 39 3d
       -0.011716898 1.15599 0.2629304 0.04536524
0001c0 94 96 05 3f 64 e9 7a be a9 e5 05 bf 66 82 01 bc
       0.5218289 -0.24503094 -0.5230356 -0.007904625
0001d0 8e e5 75 be 4c 34 f0 3e 87 52 cd 3d 12 ae af 3d
       -0.2401335 0.469149 0.100255065 0.08578123
0001e0 b9 5d 8b bc 50 74 78 bf e2 38 4e bf d1 96 94 3e
       -0.017012464 -0.9705248 -0.80555546 0.29021314
0001f0 fe fe 82 bd fd 63 74 3e 77 0e b0 3e 67 19 b2 3e
       -0.06396292 0.23866268 0.34386036 0.34785005
000200 12 f2 63 3e 69 0b 58 bf 37 f9 8c be 12 b6 23 3f
       0.22260311 -0.8439241 -0.27533886 0.6394969
000210 38 2a 31 3f d5 39 8c 3f 8a 9a 69 bd 49 79 10 bf
       0.69205046 1.0955149 -0.057032146 -0.56435066
000220 e4 bc 88 3e d8 32 c5 3d 9c 87 a5 3e fd 49 1a bf
       0.26706612 0.09628838 0.32330024 -0.6026915
000230 99 7b 51 bf 65 ed 3c bf b8 e2 17 3f a2 24 99 be
       -0.8182922 -0.73799735 0.5933032 -0.2991076
000240 5e 32 00 bf 49 06 c4 3d a4 c8 cc be 1d fc 21 bf
       -0.50076854 0.09571511 -0.39996827 -0.6327532
000250 76 e8 9b bd 95 cb b3 3e f2 19 98 be 46 2e 6d 3f
       -0.07612698 0.35116258 -0.29707295 0.9264873
000260 02 9b d9 bd d5 0e 5a 3e a4 19 dd bd 10 9f 8d 3e
       -0.106252685 0.2129472 -0.10795906 0.27660418
000270 e6 43 82 bf 16 0a 7a bf 4d 49 e2 be 0b 48 7b be
       -1.0176971 -0.9767164 -0.4419655 -0.24539201
000280 e6 2f b1 3e 0e 9d 4f 3f aa db 80 3e 2a cc af be
       0.34606856 0.8109902 0.2516759 -0.34335452
000290 05 4f b7 be 8a 70 a7 be a3 6d 4e bd 9b 7f 50 3f
       -0.35802475 -0.32703048 -0.050397526 0.8144471
0002a0 fa f3 02 3e 9a 6b 45 be 3e bf f0 3d a3 c6 41 be
       0.12788382 -0.19279328 0.117552266 -0.1892343
0002b0 76 00 0e bf e1 5e d0 be 45 bf 83 be 19 ff 97 3d
       -0.55469453 -0.40697387 -0.25731865 0.07421703
0002c0 6d b0 da 3e af 26 98 3e 1f 8c 9e 3d ab e0 f0 be
       0.42712727 0.29717013 0.0774157 -0.47046408
0002d0 22 d2 b0 bd 15 34 fb be 71 2f a5 3d b5 64 88 be
       -0.0863383 -0.49063173 0.08065689 -0.26639333
0002e0 0d 85 88 3e b2 cc 0e 3d a8 9d 21 3d 93 66 e8 3e
       0.2666401 0.03486318 0.039456993 0.45390758
0002f0 4c 7f 24 3d 71 dc 43 bf 4d 30 0d 3e 2c 88 95 3d
       0.040160462 -0.7650824 0.13787957 0.07301363
000300 b1 3f 5a bf 93 c4 2f 3f 46 13 ad be 99 58 1c be
       -0.85253435 0.68659323 -0.33803767 -0.15268172
000310 80 21 11 bf 41 32 9c be c9 ae e1 3e 53 7a 1d be
       -0.5669174 -0.3050709 0.44078663 -0.15378694
000320 5a 8d 15 3e e0 d9 2e 3e 7c aa ed 3e 03 d7 c1 3c
       0.14604703 0.170753 0.46419132 0.023662096
000330 da 47 0d 3f 00 78 02 3f 11 6c 94 3e 12 7f 80 3e
       0.5518776 0.50964355 0.28988698 0.25096947
000340 8a 9b 78 bd 87 35 52 3d dd 9e 25 bf 64 83 26 bf
       -0.06069521 0.05132058 -0.6469553 -0.65044236
000350 b1 42 2c be b0 26 fe be f2 88 70 be 18 c4 ff bd
       -0.16822316 -0.4963889 -0.2348974 -0.12488574
000360 51 c2 c7 bd 8e 39 a8 3e 12 5e d1 3e 88 79 f1 bd
       -0.0975386 0.3285641 0.40892082 -0.11790758
000370 d8 15 09 3e cb fd a6 be 83 30 fd 3e e8 94 76 be
       0.13387239 -0.32615504 0.49451074 -0.2408024
000380 db 93 31 bd 83 1a 40 bf c9 6b a0 3e 9f 45 fb bc
       -0.043353897 -0.75040454 0.31332234 -0.030672846
000390 1e 70 1a 3d e1 a9 a2 3e 00 81 5d bf 18 1c 18 3f
       0.03770458 0.31770232 -0.86524963 0.5941787
0003a0 10 00 8d bd 31 d3 64 bc 0c f7 8c be 65 82 e3 3e
       -0.068847775 -0.013966368 -0.27532232 0.4443542
0003b0 07 fe 3e 3c 73 d8 18 3e be 61 92 3d 3e c9 71 3c
       0.0116572445 0.14926319 0.07147549 0.0147574525
0003c0 d4 0a 82 3f ce b5 18 3f 36 c0 da be 58 7c 35 bf
       1.0159554 0.5965241 -0.4272477 -0.7089286
0003d0 64 26 15 bf 0e cf 99 3e 1c 50 4a be e4 67 79 3e
       -0.58261704 0.30040783 -0.19757122 0.24356037
0003e0 f6 fc a7 bd ad 20 2f be 3c 7e 97 be 33 0b eb be
       -0.08202545 -0.17102309 -0.29588497 -0.45906982
0003f0 ba 52 92 3e 4d 52 1f 3e 7d ff 4c bf a5 f9 78 bd
       0.2857874 0.15558739 -0.80077344 -0.060784955

network_body._body_endoder.seq_layers.2.bias f4 [128]
000000 ad ff 69 3e 78 d9 83 3e a3 29 4b bd d0 ba 22 bc
       0.22851439 0.25751853 -0.049600255 -0.009932235
000010 29 35 43 bd 7a 9e 06 3e ff b1 f6 bb de 1f 4a 3e
       -0.04765812 0.13146392 -0.007528543 0.19738719
000020 73 eb 26 be cd c1 00 bc 9d c7 ac 3b 6e a7 06 bb
       -0.16300754 -0.007858706 0.005272819 -0.0020546573
000030 1b 8d 60 3d b2 fa a8 3d e5 8a 7f be 7f dd 3c bd
       0.05482207 0.08250941 -0.24955328 -0.046109673
000040 85 ce 8c bd 1b 09 96 bd fb f0 a4 bb 42 c9 4f be
       -0.06875328 -0.073259555 -0.00503361 -0.20291618
000050 69 84 77 3e 45 7f 80 be 3d bb 32 3e 36 b0 c9 3d
       0.24171604 -0.250971 0.17454238 0.09848063
000060 a6 56 f1 3d c0 2b 73 be ab 45 32 be e9 94 83 3e
       0.11784105 -0.23747158 -0.17409389 0.25699547
000070 4a 26 42 3e d2 79 9c 3e 46 93 17 3e b5 f3 c5 bc
       0.18959919 0.30561692 0.14802274 -0.02416406
000080 2c 16 3b 3d cc 15 fe 3d 22 0d 79 bd dc ed c9 be
       0.04567544 0.12406501 -0.06080354 -0.39439285
000090 4f 18 b4 3d 47 2d 63 3d 54 b5 99 3e e1 07 4d be
       0.08793699 0.0554631 0.30021155 -0.20022537
0000a0 6a c1 29 3e 00 2a 96 3d 6c e3 01 be 90 96 35 3d
       0.16577688 0.073322296 -0.12684411 0.04433304
0000b0 82 3e bd be a7 cc 01 3e 81 11 3f 3e 04 86 c1 3d
       -0.36961752 0.12675725 0.18659021 0.094493896
0000c0 52 b0 f5 3d 9e 26 14 3e 2d ef df 3d a4 c5 34 be
       0.11996521 0.14467856 0.10934291 -0.17653519
0000d0 af a4 d6 be 40 4c 0c 3c b3 1a 2d 3d b6 3c 4f be
       -0.4192252 0.008563101 0.04226179 -0.20238003
0000e0 ce 36 6a 3e 54 94 9c 3e c9 30 b0 be 58 96 3e 3e
       0.22872469 0.30581915 -0.3441222 0.18612039
0000f0 8a 52 00 3d 22 c4 a9 3d 00 8d 0f 3e 39 a0 92 3c
       0.031328715 0.082893625 0.14018631 0.017898666
000100 f5 be 9e 3e d5 63 1c be f0 32 6e 3c 93 23 7c 3e
       0.31005064 -0.15272458 0.014538512 0.24622945
000110 b4 5b b8 3d 92 e9 12 3e 0b f7 4e 3d 94 b2 13 3e
       0.09001866 0.14346913 0.050528567 0.14423591
000120 2b 20 86 3c 4f ab 41 3e 8b 30 b8 3b 79 b3 43 3e
       0.01637276 0.18913005 0.005621021 0.19111432
000130 92 50 88 3e 7d c1 64 3e ca 3e 44 3d 7c b5 81 3d
       0.2662397 0.22339435 0.047911443 0.063334435
000140 d0 85 ff bd 5a e9 ca 3e e5 34 ca be 48 c5 a6 3d
       -0.124766946 0.39631158 -0.3949348 0.08143097
000150 e2 04 1d 3d 02 29 1c 3e 7d 5f 3d bc 6e bc 7c be
       0.038334735 0.15250018 -0.011558411 -0.24681255
000160 7f 69 32 3e 0f ec 74 bd b3 95 80 3e 36 05 f5 3d
       0.17423056 -0.059795436 0.2511421 0.119638845
000170 1e 5d c9 3c 9e 89 8c bd 64 b7 31 3e d3 30 89 3d
       0.024580535 -0.06862186 0.17355114 0.066987656
000180 38 36 e6 3d 76 59 f2 3d 01 5b 64 3c cd 64 1f be
       0.1124081 0.118334696 0.013937713 -0.15565796
000190 66 51 fa 3c 7d bc 00 3c 7b aa 7d 3e e0 e8 74 3e
       0.030556392 0.007857439 0.24772064 0.2391696
0001a0 a1 66 31 bd 2c 2d 22 bd e8 fe 48 3e 05 b3 8d bd
       -0.043310765 -0.03959386 0.19628489 -0.06918911
0001b0 f0 ac 19 3e df 86 fb 3d 37 87 40 3d 5d 31 1d bd
       0.15007377 0.12281584 0.04700395 -0.038377155
0001c0 6f d9 87 3e 7c c5 34 bd 9a 20 ae 3d ca f0 9c 3c
       0.26533076 -0.04413365 0.08502312 0.019157786
0001d0 c1 dd 56 3d de 21 34 3d d8 00 26 bd 05 5a a2 3d
       0.052457575 0.04397761 -0.04052815 0.07927326
0001e0 e2 27 8a 3d 09 cf c9 3e 92 0d 87 b9 6f 96 d8 bd
       0.06745888 0.39415768 -0.00025759317 -0.10575568
0001f0 08 e3 3f be d8 81 0e 3d 5a 17 1c 3e 20 5d 00 bf
       -0.1873895 0.034791797 0.15243283 -0.501421

network_body._body_endoder.seq_layers.2.weight f4 [128, 128]
000000 19 03 27 be ed c9 f1 bd 73 08 e4 bd 9f 9f 62 be
       -0.16309775 -0.118060924 -0.11134424 -0.22131203
000010 0d f3 a0 bc d3 0a 82 bd c0 80 39 3d 65 9d 1b 3e
       -0.019647146 -0.06349721 0.0452888 0.1519676
000020 a5 92 b8 bd 50 3b 8f 3d d1 e0 39 3e d1 49 18 bd
       -0.09012345 0.06993735 0.18152167 -0.03717977
000030 ef a9 24 bd 76 e5 dc 3d 2f 7f a4 3d f6 e7 ef 3d
       -0.040201124 0.10785954 0.08032071 0.11714165
000040 a3 d2 80 be 4b 61 4a 3d c4 c2 87 3d 12 bb 2f be
       -0.25160703 0.049409192 0.066289455 -0.17161205
000050 cd f1 85 bc b4 57 c6 bd fa c6 a3 3d 8b 36 61 3d
       -0.016350651 -0.09684697 0.07996936 0.054983657
000060 75 73 71 be ba 97 04 3d ec ed 19 3e 15 ca c2 3d
       -0.235792 0.03237126 0.15032166 0.095112
000070 b5 b5 f8 bc 56 81 36 3e 70 58 98 bd 4e 07 02 be
       -0.030360082 0.17822775 -0.07438743 -0.12698099
000080 85 8b a7 3b cc 79 0c be de cc cf 3c aa 02 4b 3e
       0.0051130676 -0.13718337 0.025366243 0.19825235
000090 fb 12 d9 ba 68 66 63 3c 18 67 cc bd 5f b1 1b bd
       -0.0016561443 0.013879396 -0.09980601 -0.03801095
0000a0 4a b5 83 3c 5a 00 c1 3c 16 28 1c 3d 2d 0d 80 bd
       0.016077656 0.023559738 0.038124166 -0.06252513
0000b0 15 77 d5 3c dc fd 18 be 8d 35 3a 3e 54 ab 30 bf
       0.02605776 -0.1494059 0.1818449 -0.69011426
0000c0 96 bf 95 bc 90 0a 0c 3e fe 6e 9a bd 0f 7a 3d be
       -0.018279832 0.13675904 -0.07540701 -0.18503593
0000d0 3e 43 c0 3c c2 12 24 be 52 c1 22 3d 05 e9 49 3d
       0.023469564 -0.1602278 0.039735146 0.04929449
0000e0 ec b1 f4 3d b5 f5 3f be 98 cd 4e bc 33 b5 b4 3d
       0.119479984 -0.18746074 -0.01262226 0.088236235
0000f0 f8 bb 17 be 1a 0a 42 bd b8 79 24 3c d9 9f cb bd
       -0.14817798 -0.047372915 0.010038786 -0.09942598
000100 84 d1 97 bd 1a 98 93 bd f4 67 a2 3c b5 c3 ac 3d
       -0.07413009 -0.072067454 0.01982496 0.08435766
000110 3a 4e 0e be ae 91 5d 3d 8c 4a 7b 3d 1f 3a 08 bd
       -0.13897029 0.05409401 0.06135039 -0.033258554
000120 af c5 8e bd 01 d0 77 bd ec c2 43 3e b8 97 ec 3c
       -0.06971299 -0.060501102 0.19117326 0.028880939
000130 88 65 ab bb 5b e7 bd bd 6d b7 dd bc 0c d4 a7 3d
       -0.0052306093 -0.09272643 -0.027065003 0.081947416
000140 d5 bc 05 bd 88 03 db bc 78 62 98 3d 33 08 b4 bc
       -0.032650787 -0.026735082 0.074406564 -0.021976566
000150 21 eb 86 bd 88 8d 11 be bf 7b b6 bd 37 c5 90 bd
       -0.06587816 -0.14214146 -0.089103214 -0.07068866
000160 4f 6a 09 3d d7 89 43 be 94 d7 c3 bd 99 4d fe 3c
       0.03354865 -0.1909555 -0.09562603 0.03104286
000170 46 51 41 3d 0b 65 ba 3d 5b 05 8d bd b0 71 33 bf
       0.04719665 0.09101304 -0.06885787 -0.7009535
000180 e0 8a 01 bd 3a 75 e6 bd fc 0c f7 3d 55 87 a2 3d
       -0.031626582 -0.11252828 0.120630234 0.07935969
000190 ff 0b ed bd ec ba 9f bb 48 ef 2b bd 6f b1 58 bd
       -0.11574554 -0.0048745777 -0.041976243 -0.05290359
0001a0 a9 e5 91 be bc 4a e6 bd e4 ee 1f bd de df 71 3c
       -0.2849553 -0.11244723 -0.039046183 0.014762847
0001b0 45 06 50 be 59 e1 d3 bc 91 55 49 be f2 80 84 3d
       -0.20314892 -0.02586429 -0.19661547 0.06469907
0001c0 3c 2d 97 bd e6 a8 32 be c3 18 13 3c 51 08 d6 bb
       -0.07381675 -0.17447242 0.008978072 -0.006531753
0001d0 e2 49 13 3e 45 90 99 3d 52 81 8c 3d 97 fe 5c bd
       0.14383653 0.0749822 0.068606034 -0.053953733
0001e0 e0 b9 37 3d 9f aa b3 3c e3 c1 e7 bd fe 19 32 3d
       0.044855 0.021931944 -0.11316278 0.04348182
0001f0 05 0c 87 bd 2c 6e ae bd 14 ce f0 bd b8 da 7f be
       -0.065940894 -0.08517107 -0.11758056 -0.24985778
000200 27 15 31 be 97 38 64 b8 af 43 21 3e 42 c9 ac bc
       -0.17293225 -5.441214e-05 0.15748475 -0.021092061
000210 ea 26 d0 bd 23 81 f4 3d e9 08 e3 bc b7 83 a3 3d
       -0.10163672 0.119386934 -0.02771421 0.07984107
000220 81 2b 89 bd 0f cd 96 bd 7e f6 42 3e 50 e3 bd 3c
       -0.06697751 -0.073633306 0.19039342 0.02317968
000230 d9 51 9d bd 48 32 86 bd bb d3 5a 3b 6d a6 87 3d
       -0.07681627 -0.06552559 0.0033390361 0.0662354
000240 2c d1 38 3d 38 07 e2 bc 5b 68 c8 be 97 c2 e1 bd
       0.045121357 -0.027591333 -0.39142117 -0.11023443
000250 62 1a 1f 3e 78 19 ad bd 50 d4 a2 be 02 19 77 be
       0.15537408 -0.084521234 -0.31802607 -0.24130633
000260 f1 10 be 3c 1b 84 a7 bd fc d0 92 bd 06 fd af 3c
       0.023201438 -0.08179494 -0.07168767 0.021482956
000270 c5 0a ef 3a 7c 94 82 be 69 56 7f be 06 84 38 ba
       0.0018237463 -0.2550391 -0.24935307 -0.0007038716
000280 80 64 09 3e 6e 28 1e bd 4e c5 79 bc 1d 30 48 3d
       0.13417244 -0.038612776 -0.015244795 0.04887401
000290 64 23 21 be 9f 25 f5 bc 94 fb a2 3d bd 63 08 bd
       -0.15736157 -0.029925166 0.07958141 -0.033298243
0002a0 d3 16 55 3e 85 62 49 3d 4a b0 aa bc d8 0b 1b bf
       0.20809488 0.04916622 -0.020836014 -0.6056495
0002b0 1a 65 22 3d 7b 2e 14 be a5 5c 14 bf 4e c7 7e 3e
       0.0396472 -0.14470856 -0.57953864 0.24880716
0002c0 af 12 31 3d a1 20 7a bd b2 03 b2 bc 19 5d e3 3d
       0.04323071 -0.061066274 -0.021730278 0.11101741
0002d0 11 f5 92 3c ce ef 12 3d 9f 67 18 3e c4 45 7e 3c
       0.017939122 0.035873227 0.14883278 0.015519563
0002e0 f6 59 22 3d 16 8a 0d be a7 12 bb 3c 20 88 f8 3d
       0.039636575 -0.13822207 0.022836043 0.12135339
0002f0 1d 38 a4 3d b7 14 bf 3d 8d cd f3 bd e5 2c 12 be
       0.08018515 0.09330123 -0.1190444 -0.14274938
000300 6b d6 8b bc 09 45 bd bd 08 7c fc 3d 3d 96 b6 bd
       -0.017070016 -0.09241683 0.123283446 -0.089153744
000310 34 8a 28 be ff 8a b8 3d de e3 96 3d 9e 06 76 bc
       -0.1645897 0.090108864 0.07367681 -0.015016226
000320 4d cf 47 be b1 58 b0 bc 05 f4 1b 3e d2 3d cc bb
       -0.19512673 -0.021526666 0.15229805 -0.0062329555
000330 8b e9 16 bd e1 a3 95 3c fd dc 3d be cc 3c 9f 3d
       -0.036843818 0.01826662 -0.18541332 0.07775268
000340 63 86 8b 3b dc ac a5 3d 24 97 99 bd 60 34 63 3d
       0.0042579635 0.08089611 -0.07499531 0.05546987
000350 a6 62 54 be ca 60 d2 3d 7e 96 9a 3d ac db a1 3d
       -0.20740756 0.10272367 0.07548235 0.07903227
000360 b3 6f 59 bd 8f 2c 30 be a7 f4 3c 3a 33 04 ec bd
       -0.05308504 -0.17204498 0.0007208087 -0.115242384
000370 c7 4e cb bd fb 37 8f be c2 12 e3 bd 70 83 6a 3e
       -0.09927135 -0.27972397 -0.11087562 0.22901702
000380 57 47 a3 bd c7 49 98 bd 6b de 76 bd 2e e4 98 3d
       -0.07972591 -0.07435947 -0.060270708 0.07465397
000390 b5 24 dc 3c ee ce c3 bd 3d 18 d8 3d b7 6e 8d 3d
       0.026872972 -0.09560953 0.10551498 0.06905883
0003a0 6f 77 aa bd b4 e4 c0 3d 8f ab 89 bd ba 36 98 3d
       -0.083235614 0.09418622 -0.06722175 0.07432313
0003b0 fd 50 3d be 24 bc 48 3c bd 62 b0 3c 29 09 7f 3d
       -0.18487926 0.0122518875 0.021531457 0.062264595
0003c0 a5 4a a3 3c 4e 86 93 be ed 74 6b be f6 5e c2 3d
       0.019933054 -0.28813404 -0.22993822 0.094907686
0003d0 14 aa 33 bd e6 47 4d be 7e 38 88 3e 9c 9f 7f bf
       -0.04386337 -0.20046958 0.266056 -0.9985292
0003e0 16 c3 13 bd 84 cb 47 bd a0 4e 67 3d d9 66 fe bd
       -0.03607472 -0.048778072 0.056471467 -0.124219604
0003f0 2e 5b e4 bd 92 4e 95 3d 29 77 8d bd 88 56 e2 3d
       -0.11150204 0.07290377 -0.069074936 0.11051661
